models/pytorch_model.pth (torch, 199127 bytes, 6 tensors)

conv1.0.weight f4 [140, 206]
00000000: 6320 8dc0 b956 8dc0 7678 89c0 b460 8dc0
00000010: 2c65 8cc0 93c9 80c0 401a 573d 3aec b4bd
00000020: 8442 913d 8934 82bd 9a45 c3bd e805 823c
00000030: 502c 283c f546 96bd acc2 293d e821 973d
00000040: 3411 843d 4ace a3bd 482b dfbc f014 69bd
00000050: 0af5 9a3d bfba 99bd 7581 02be d8be cabd
00000060: 9959 053e 015c 043e 0c09 fabc 7849 aabc
00000070: 1864 583d c60d dd3d 68b3 25bd da4d b93d
00000080: d322 8bbd da76 b5bd f40a 04be 3445 6e3d
00000090: d845 e93c 06de f6bd 2e3d a53d 2637 04be
000000a0: 9fd1 8bbd 9c88 d9bd d0d0 6c3c 40fe eb3b
000000b0: 8061 a23c 0691 913d 7c76 09bd 6471 df3d
000000c0: 00b8 993d 60c7 573c 0881 f73c c41c e53d
000000d0: ce63 cdbd 4026 323c 2c64 473d a470 093d
000000e0: 61f2 a6bd 1fda 023e 1094 efbb 5892 033d
000000f0: 28ad 94bc 78a8 1e3d 5a00 e7bd bfbd 98bd
00000100: 6ecb 22bd 6e8d 57bd 642a d6bc 709d 423d
00000110: 9ed4 f4bd dcd1 b0bc 3346 02be 0030 7338
00000120: 6453 253d 7c8c 353d 22a4 44bd 62ed 35bd
00000130: 60c9 103d 9c4f 6b3d 286d 9d3d 878e 033e
00000140: 9675 fb3d a816 99bd b0e1 2a3c d84c 3bbd
00000150: e0a7 ba3d 155f a8bd 401d 25bd a11c d6bd
00000160: 92ad a9bd 3a50 b93d 269e 5cbd 769b df3d
00000170: 4add e5bd e0fa 863d 724c f63d 106b 703d
00000180: 4e3b fd3d b620 23bd 24ea 663d 5c90 13bd
00000190: 52cc b73d eb23 a2bd 90f2 b43c 8cf1 d93d
000001a0: 2c20 e3bc 281e b43d 963e 03bd 7edc a4bd
000001b0: 40a1 e73c 284d 9fbc 801a 553c da6f 3fbd
000001c0: 40ac b3bb a6c7 c53d cadc a73d 9e01 a5bd
000001d0: 80dd 713b 66dc dabd 48c8 4ebc 56e4 f53d
000001e0: ca3c 6ebd 1062 0f3c 5a84 a2bd 9051 893d
000001f0: 34c3 61bd 885a 38bc 5a2a a33d 9071 edbb
00000200: c006 1e3c 17f3 003e 2636 0fbd 606e c1bd
00000210: 005c 52ba 2f2f e3bd 49e9 efbd c9d8 acbd
00000220: ba23 6bbd bc82 473d 1e85 c5bd 4a4e fd3d
00000230: 73ac 8ebd a88a 953d 7b3f a7bd 1fa0 023e
00000240: d4dc 383d 11b5 03be dc57 99bd b46d 203d
00000250: 1886 ce3c 6162 fdbd bf5c debd 94df bebc
00000260: fce8 f03d 0298 973d 002e b6b9 c04f 913b
00000270: d015 3abd a0f0 3d3c 4649 d9bd 8006 283d
00000280: fc2b 94bd 606d be3b 861d f53d 609b 8f3c
00000290: 1e35 c2bd 7815 ee3d fc00 d1bd 5c46 ed3d
000002a0: 4755 94bd 588d 893c d8cd 2f3d 507f 1ebd
000002b0: 5ad4 973d b0e2 ee3c 289c 7e3d 9848 223d
000002c0: e8e6 37bc dc13 d1bc ec58 06be dc7c aebd
000002d0: a00f 7dbc d063 5f3c 2026 fd3b 2898 953c
000002e0: 3822 9a3c 8c96 bc3d 3a24 e83d 4270 f63d
000002f0: 30af 0d3d 9c08 723d 023a 913d a8b4 5d3d
00000300: e43e 94bd 0a24 ff3d 70f8 d8bc ae68 f53d
00000310: c6b8 d13d 42e9 ab3d a863 94bd 7692 f63d
00000320: b04a 59bd 2e63 c53d a6ba f7bd 92c9 fb3d
00000330: 1c1d 89bc 2af4 c13d cf36 a9c0 4bef aec0
00000340: 4a15 aac0 d695 adc0 9362 acc0 3071 15bd
00000350: 2010 9fbb ac53 a23d f45f 0b3d a842 d93c
00000360: da53 cf3d be62 e1bd 4801 6ebd 0168 d3bd
00000370: 70fd 273d 50b6 9bbc 2365 adbd a85f 73bc
00000380: d498 b03d 30ab 043c 80ae a1bb 0128 003e
00000390: 2aa7 f03d 3024 aabc 7246 6abd 40ec 503d
000003a0: 9032 133d 61f2 ffbd 4855 ac3c 44aa 3cbd
000003b0: d5db 033e c067 463c d06e 363c 4e98 f53d
000003c0: 14c9 94bd 9e87 83bd 25a8 05be 342e 85bc
000003d0: 8440 a53d 0023 e5bc a0ba b5bb 2417 b8bd
000003e0: 7c17 9fbd bac6 53bd 4888 0dbd 6023 023c
000003f0: ec17 393d 5e2a 5cbd ae0a 85bd 5633 833d
-4.4102035 -4.4168363 -4.2959547 -4.4180546 -4.38735 -4.024606 0.05251527 -0.08834119
0.07092765 -0.063576765 -0.0953476 0.015871957 0.010264471 -0.07337753 0.04144542 0.07379514
0.06448594 -0.07998331 -0.027242318 -0.056904733 0.07566269 -0.07506322 -0.12744696 -0.09899682
0.1302246 0.12925722 -0.030521892 -0.020786986 0.05282983 0.10793643 -0.0404543 0.09048052
-0.067937516 -0.0886056 -0.12894803 0.058171466 0.028475687 -0.12054066 0.0806831 -0.12911662
-0.068270914 -0.10621759 0.014454082 0.00720194 0.019821882 0.07107739 -0.03356026 0.109102994
0.07505798 0.013170093 0.030212894 0.11187127 -0.10028802 0.010873377 0.048679516 0.033554688
-0.08151699 0.12778519 -0.0073113516 0.032121986 -0.018148974 0.038734883 -0.11279364 -0.07458066
-0.039744787 -0.052625112 -0.02614326 0.047513425 -0.11954616 -0.021584444 -0.12722091 5.798042e-05
0.04036273 0.04432343 -0.04800809 -0.04441584 0.035348296 0.05744897 0.076868355 0.12847339
0.12278287 -0.074750245 0.010429785 -0.04572758 0.09114051 -0.082212605 -0.040311098 -0.10454679
-0.08285059 0.09048505 -0.05386176 0.10918324 -0.11223848 0.06590819 0.120262995 0.058695853
0.12364827 -0.039826117 0.056375638 -0.036026344 0.08974518 -0.07917007 0.022088319 0.106417745
-0.027725302 0.08794814 -0.03204211 -0.08049868 0.028275132 -0.01944597 0.013006806 -0.04673753
-0.0054831803 0.096572205 0.08196409 -0.08056949 0.0036905706 -0.10686569 -0.012620993 0.12006442
-0.05816344 0.008751407 -0.079354 0.0670501 -0.0551178 -0.011252053 0.07967062 -0.0072462037
0.009645164 0.12592731 -0.03496375 -0.094448805 -0.00080245733 -0.11092984 -0.117144175 -0.08439786
-0.05740712 0.048708662 -0.09644531 0.12368448 -0.06966486 0.07301837 -0.08166405 0.12756394
0.045132473 -0.1286204 -0.07487461 0.03916712 0.025210425 -0.1237228 -0.10857534 -0.02329997
0.11763188 0.0740204 -0.00034748018 0.004434556 -0.04543096 0.011593014 -0.10609679 0.041021824
-0.07234952 0.0058113784 0.11968522 0.017530143 -0.094827875 0.116251886 -0.10205266 0.115856856
-0.07242828 0.01679103 0.042920917 -0.038695633 0.0741355 0.029160827 0.06216064 0.039620012
-0.011224486 -0.025522165 -0.13119859 -0.08519909 -0.01544562 0.013634637 0.007725492 0.01826103
0.018815145 0.09208402 0.11335035 0.1203313 0.0345909 0.05909024 0.07091142 0.054127365
-0.07238558 0.12458046 -0.026485652 0.11982857 0.10240321 0.083941 -0.072455704 0.12039654
-0.053049743 0.09638058 -0.12096147 0.12294306 -0.016737513 0.09470399 -5.2879405 -5.4667106
-5.315099 -5.4245405 -5.387033 -0.036484897 -0.004854217 0.079261154 0.034027055 0.026521042
0.10123415 -0.11005162 -0.05810669 -0.103225715 0.04101318 -0.019007832 -0.08466556 -0.014854349
0.086229 0.008097455 -0.004934132 0.1251526 0.11750634 -0.020769209 -0.057196088 0.051006556
0.035936892 -0.12497402 0.021036759 -0.046060815 0.12876828 0.012109697 0.011134818 0.119919404
-0.07264915 -0.06422351 -0.13052423 -0.016257383 0.08068946 -0.02797079 -0.005545929 -0.08988789
-0.07768151 -0.051703192 -0.034553796 0.007943004 0.04518883 -0.053751342 -0.064961776 0.06406276

conv1.0.bias f4 [140]
00000000: f68b 8bc0 4df5 acc0 5da6 94c0 8f18 a0c0
00000010: 379c a1c0 22ae a4c0 9fc5 8bc0 c382 a6c0
00000020: 3bf5 acc0 48e6 8bc0 2af5 acc0 cc05 91c0
00000030: 670e 3ac0 e049 ddc1 8b67 95c0 6210 4ac2
00000040: e39d 98c1 6de3 68c0 9018 a0c0 0e53 59c0
00000050: d624 36c1 872d bcc0 c1b3 8bc0 4ebf 94c0
00000060: 4df5 acc0 758a 93c0 7cf1 8ac0 35f0 dec1
00000070: 5b14 4ac0 09e0 83c1 467c 90c0 5ea6 94c0
00000080: 45f5 acc0 55b3 bdc1 b93d aac0 94c7 65c0
00000090: de52 65c0 db82 8bc0 b9f4 acc0 46f5 acc0
000000a0: 5db3 8bc0 7206 66c0 39f5 acc0 60c2 8bc0
000000b0: 9b7b 94c0 be44 3ac0 2cf7 96c0 f2f4 acc0
000000c0: 446f 65c0 c5d0 f8c0 e89d 8bc0 baf4 acc0
000000d0: 1ebc 8bc0 d600 8cc0 f3f4 acc0 030a 4ac1
000000e0: 89b3 8bc0 b5ea 8bc0 6ef4 acc0 0000 0000
000000f0: 0ff4 acc0 b131 43c1 68e5 8bc0 3706 8cc0
00000100: 2ef5 acc0 07c5 91c1 34f5 acc0 0fa3 93c0
00000110: c0ee 8bc0 0657 90c1 01cb 8bc0 0000 0000
00000120: 1456 51c0 77c9 c8c1 a40d 3bc1 b5a3 8bc0
00000130: 30f5 acc0 c888 d8c1 fd31 66c0 c18f 9ac0
00000140: 1e1a 99c0 9b7b 94c0 b7c4 8bc0 c588 3dc1
00000150: 6f59 3fbd 68f9 8bc0 c5d0 f8c0 25ed 05c2
00000160: 7f06 e3c1 64b5 a9c1 60d4 8bc0 16f5 acc0
00000170: b303 66c0 0000 0000 0000 0000 d1f4 acc0
00000180: 621e cfc1 37f0 8bc0 46d1 8bc0 c79a 66c0
00000190: 8b4d dec1 c3d0 f8c0 948d 8bc0 94aa a5c0
000001a0: 2f05 66c0 4cf5 acc0 33f5 acc0 bb1e 65c0
000001b0: 40b5 8bc0 80f4 acc0 2df5 acc0 f448 4bc1
000001c0: 52f5 acc0 17f5 acc0 6288 8bc0 44f5 acc0
000001d0: 5580 96c0 0e58 93c0 cb2a 62c1 8e18 a0c0
000001e0: be28 c3c0 ad31 43c1 004b 7ec1 35f5 acc0
000001f0: c282 a6c0 4223 dfc1 9d7b 94c0 49f5 acc0
00000200: 43f5 acc0 8340 a1c1 9b7b 94c0 96dd 8bc0
00000210: 5e31 8cc0 8dbf 11c2 2010 97c0 e7e0 5cc0
00000220: d200 96c0 55f5 acc0 0f58 93c0 fb65 66c0
-4.360835 -5.404944 -4.645308 -5.002998 -5.050319 -5.1462564 -4.3678737 -5.203462
-5.4049354 -4.3718605 -5.4049273 -4.5319576 -2.907129 -27.661072 -4.6688895 -50.516
-19.077093 -3.638881 -5.0029984 -3.3956943 -11.383993 -5.8805575 -4.3656926 -4.6483526
-5.404944 -4.6106515 -4.341978 -27.867289 -3.1574924 -16.484392 -4.51517 -4.6453085
-5.40494 -23.712564 -5.3200345 -3.5903063 -3.5831828 -4.3597236 -5.4048734 -5.4049406
-4.365645 -3.5941434 -5.4049344 -4.3674774 -4.6400886 -2.9104457 -4.7176723 -5.4049006
-3.584916 -7.7754846 -4.3630257 -5.404874 -4.3667135 -4.375102 -5.404901 -12.627444
-4.365666 -4.3724008 -5.4048376 0.0 -5.4047923 -12.199632 -4.3717537 -4.3757586
-5.404929 -18.221205 -5.404932 -4.6136546 -4.3728943 -18.042492 -4.3685308 0.0
-3.2708788 -25.098372 -11.69083 -4.363734 -5.40493 -27.066788 -3.596801 -4.830048
-4.784438 -4.6400886 -4.367763 -11.845891 -0.04671615 -4.374195 -7.7754846 -33.481586
-28.378172 -21.21357 -4.3696747 -5.4049177 -3.5939758 0.0 0.0 -5.404885
-25.889835 -4.373073 -4.369296 -3.6031969 -27.787863 -7.7754836 -4.3610325 -5.1770725
-3.5940664 -5.4049435 -5.4049315 -3.5800006 -4.3658752 -5.404846 -5.4049287 -12.705311
-5.4049463 -5.404918 -4.3603983 -5.4049397 -4.7031655 -4.604499 -14.1354475 -5.0029974
-6.0987234 -12.199628 -15.893311 -5.4049325 -5.2034616 -27.892216 -4.6400895 -5.404942
-5.404939 -20.1565 -4.6400886 -4.370799 -4.3810263 -36.43706 -4.7207184 -3.451227
-4.6876 -5.4049478 -4.6044993 -3.5999744

conv2.0.weight f4 [140, 140]
00000000: adad c7c0 2ed7 afc0 eabf 62bd eb42 9fbd
00000010: ecb5 403d fe5f 9dbd 9a5e c8c0 b891 043e
00000020: 1a5f b1c0 b15c c7c0 259c ac40 8af9 98c0
00000030: 90a0 4fc0 7a78 f6bd 821e 91c0 94ac d4c1
00000040: aebd 08be d882 f9c0 b02d 123e 8aab 05be
00000050: d04d cfbd d2fa c0c0 cbe1 c5c0 b3de c8c0
00000060: 354b aac0 2888 f9c0 4525 9ac0 1a7a 13bd
00000070: 1330 43c0 085d eb3d f76d 9cc0 c898 11be
00000080: 1298 a8c0 5286 f9bd 0dc8 03be c0e5 4dc0
00000090: 328e 5cc0 8457 cec0 b4dd adc0 bd19 b0c0
000000a0: 6658 cac0 468a 56c0 064c a9c0 27e4 ccc0
000000b0: 824f 95c0 1c82 4ac0 e868 5440 47e3 b0c0
000000c0: 0dda 50c0 c07a 4f3b d943 c6c0 5c44 b040
000000d0: 452e c9c0 1caa cbc0 28e6 abc0 e0da 893d
000000e0: cffd cdc0 4a6c c6c0 ad21 b1c0 f853 113e
000000f0: 539c b0c0 34db 2b3d 7ff6 c6c0 ece5 c8c0
00000100: b2ed b0c0 c018 06bb 7024 acc0 ae74 9540
00000110: 9dda c8c0 25b4 8fbd 8b53 c8c0 80b9 bdba
00000120: 8a9c d0c0 8044 b03d 7362 04be 8bd9 c9c0
00000130: a3a6 afc0 00cc 8ab9 19d4 54c0 0482 9b40
00000140: 8ac4 9cc0 9027 96c0 9eea c6c0 e822 b53c
00000150: 561b 19c0 3d4d c7c0 2810 a2bc c4cb 41bd
00000160: 9033 f43d 3930 b5bd 3206 ccc0 b39a a8c0
00000170: cb96 4dc0 b080 7e3d b0b0 a53d bcfb aec0
00000180: f8fc 613d 3c02 ccc0 9a03 ccc0 78b6 53c0
00000190: 603e b63c d2b6 14be 25e5 c6c0 e28c 56bd
000001a0: e042 55c0 a9bd afc0 07c4 abc0 f08c 59c0
000001b0: f106 c6c0 0766 aec0 d736 a9c0 d081 8bbc
000001c0: 74f8 a940 53ee afc0 78d8 c8c0 70b3 aec0
000001d0: 1aa0 97c0 b2f7 8f40 9c0a a03d 5601 0f3e
000001e0: 303e 13be 2d0c bbbd 5c79 dbbd 757f ae40
000001f0: 94f4 a63d bc6b 4f3d f7b3 95c0 5748 a9c0
00000200: 9c3f b0c0 509a b33d 3d14 94c0 4bbf cbc0
00000210: 8717 cbc0 b456 a841 3bcc 5840 1b43 82c0
00000220: 6ed8 5040 7d44 acc0 af76 9440 75fd 5ac0
00000230: dc74 cec0 3db1 acc0 4883 e33d d72c 04be
00000240: 427f 953d 4c6f a8bd fa17 cac0 bf98 8bbd
00000250: e5cf a9c0 9651 cbc0 2bbe ad40 5341 9ec0
00000260: 0967 55c0 00dd e73c 34da 6a3d a443 103d
00000270: 321a 063e c283 ffc0 8012 df3b c0e6 3f3d
00000280: d8e3 e93d b405 73bd c57e cac0 8cef 86c0
00000290: 7727 aac0 b316 01c1 1481 9dc0 a8bf a7bc
000002a0: c825 9440 60ad fc3d d112 97c0 34fc 8ebd
000002b0: 1ebf acc0 124f 993d 64f6 adbd dd7d 51c0
000002c0: f7a7 56c0 5323 c8c0 71d7 a8c0 3c0e aac0
000002d0: b7bb c6c0 1c13 53c0 a4f4 a9c0 079f ccc0
000002e0: bae5 7bbd e2a9 5cc0 a8c0 5840 949f abc0
000002f0: 77a1 5cc0 08e3 b93c 3093 c5c0 9ff5 af40
00000300: d68e c9c0 ff2c cdc0 dd84 adc0 7c90 743d
00000310: 02ef c5c0 9db2 c7c0 437a aac0 7e6a 13be
00000320: e331 afc0 f043 52bc 3c12 cac0 844e c6c0
00000330: 16f0 aac0 2cfa 07be 01c5 a8c0 7f8b 95c0
00000340: da2d cac0 6c90 6fbd 9af9 c8c0 02b4 a8bd
00000350: 4026 0dbe 1a47 7bbd dcc0 d1bd d818 c8c0
00000360: 914a a8c0 f040 c03c af23 55c0 c061 573b
00000370: 985e 463d a0c1 443c ac8a c9c0 f216 35bd
00000380: e3a3 a0c0 4504 c7c0 206d 5fbd 181a f2bc
00000390: 988c 153e 2895 d7bc 45c7 c8c0 5490 a8c0
000003a0: d930 5cc0 00db d3bb 5538 0cbe cbbe acc0
000003b0: 782e 583d 90f1 cac0 3542 ccc0 48d6 5bc0
000003c0: 32de 94bd 268e 9c3d a8ba c7c0 eeb1 6fbd
000003d0: 969b 54c0 f185 acc0 d8e3 adc0 8b04 4cc0
000003e0: 21a5 cbc0 f9fa adc0 20d3 aac0 008a c3bb
000003f0: 2567 ab40 b958 b0c0 98c0 c8c0 36e2 aac0
-6.2399507 -5.495017 -0.055358805 -0.077764355 0.047048494 -0.07684325 -6.261548 0.12946212
-5.542859 -6.230065 5.3940606 -4.7804613 -3.244175 -0.12034698 -4.534974 -26.584267
-0.13353607 -7.797222 0.14275241 -0.13053718 -0.101222634 -6.0306177 -6.1838126 -6.277185
-5.3216805 -7.7978706 -4.8170495 -0.036005117 -3.0498092 0.11492354 -4.8884234 -0.14218438
-5.2685633 -0.12183823 -0.12869282 -3.2171478 -3.446179 -6.448183 -5.4333134 -5.503142
-6.323291 -3.3521895 -5.29053 -6.4028506 -4.6659555 -3.1641912 3.318903 -5.527744
-3.2633088 0.0031658858 -6.195782 5.5083447 -6.286898 -6.3645153 -5.3718452 0.067312
-6.4372325 -6.200719 -5.535361 0.14192188 -5.5190825 0.041957095 -6.21759 -6.2780666
-5.5290155 -0.002046153 -5.379448 4.670493 -6.276686 -0.07016782 -6.260198 -0.0014474839
-6.519109 0.08606815 -0.1292818 -6.3078055 -5.4890914 -0.00026473403 -3.3254454 4.859621
-4.8989916 -4.6923294 -6.21614 0.022111371 -2.3922935 -6.2281785 -0.019783095 -0.047313467
0.11923897 -0.08847088 -6.3757563 -5.268884 -3.2123287 0.062134445 0.08090341 -5.4682293
0.05517289 -6.3752728 -6.3754396 -3.308012 0.02224654 -0.14522865 -6.2154717 -0.05238045
-3.3322067 -5.491902 -5.367679 -3.3992271 -6.1883473 -5.4499545 -5.2879443 -0.017029673
5.3115788 -5.4978423 -6.2764244 -5.459404 -4.7382936 4.4989862 0.078145236 0.13965353
-0.14379191 -0.09133182 -0.10716507 5.4530587 0.08152118 0.050639853 -4.6782184 -5.2900805
-5.507765 0.08769667 -4.6274705 -6.367101 -6.346622 21.042336 3.3874652 -4.0706916
3.2632098 -5.3833604 4.6394877 -3.4217198 -6.451765 -5.3966355 0.11109024 -0.1290773
0.07299663 -0.08224353 -6.315427 -0.068162434 -5.3066278 -6.353709 5.429464 -4.945474
-3.3344138 0.028303623 0.057337 0.035220757 0.1309593 -7.9848337 0.0068076253 0.04685092
0.11420411 -0.05933161 -6.327975 -4.2167416 -5.3173175 -8.068042 -4.9220066 -0.020477131
4.629612 0.12337756 -4.721047 -0.06981698 -5.3983297 0.074857846 -0.08494261 -3.273307
-3.3540018 -6.254312 -5.276299 -5.3142376 -6.2104144 -3.2980413 -5.3111134 -6.3944125
-0.06149838 -3.4478688 3.3867588 -5.3632298 -3.447355 0.022691265 -6.174217 5.498733
-6.298686 -6.4117427 -5.4224687 0.059708104 -6.1854258 -6.2405534 -5.3274245 -0.14396092
-5.4748397 -0.01283358 -6.314726 -6.1970844 -5.3418074 -0.13279027 -5.2740483 -4.6732783
-6.318097 -0.05848734 -6.280469 -0.08237459 -0.13784122 -0.061347105 -0.10241863 -6.2530327
-5.2591023 0.023468465 -3.330303 0.003286466 0.048430055 0.012009054 -6.2981777 -0.044211335
-5.0200057 -6.219271 -0.05454743 -0.029553458 0.14604414 -0.02631624 -6.274325 -5.267618
-3.4404814 -0.006465316 -0.13693364 -5.39829 0.05277869 -6.3419876 -6.383082 -3.4349537
-0.07268943 0.076443 -6.241535 -0.058519296 -3.3219962 -5.3913503 -5.434063 -3.1877773
-6.3639073 -5.4368863 -5.338272 -0.0059673786 5.356341 -5.5108304 -6.27351 -5.3401136

conv2.0.bias f4 [140]
00000000: 87a1 e3c1 88f5 69c1 fbf9 aac1 5ebe b7c1
00000010: 6395 1dc1 a03c 4dc0 3809 a0c1 3775 12c1
00000020: e3a9 4dc2 bb19 a440 d924 abc0 6a5e f3c1
00000030: 8082 5eb9 9ddf 80c1 ca71 9ac0 358c 63c1
00000040: 77d7 0fc0 810a dbc1 b8b1 5bc0 0996 73c1
00000050: 28ac 8fc1 247a bfbf d7f9 2ec2 4cd5 26c0
00000060: ad82 43c1 1d81 efc1 8101 58c0 3935 25c0
00000070: 4d9a 57c1 5189 bfc1 4b0b 60c0 bb0c 33c1
00000080: 1611 60c0 b611 16c0 6c89 a5c1 cfac c0c1
00000090: adc6 51c1 5658 16c1 6102 2bc2 59cb 3041
000000a0: 7bfe 0cc1 ed66 65c1 a995 74c1 d79b c4bf
000000b0: ce05 a6c0 0398 e0c0 6853 12c0 c3c7 32c2
000000c0: 1094 e8bf bd70 14c2 4f4b e9c1 0d69 5fc1
000000d0: 0f95 08c1 6b20 08c2 04f3 0fc1 e143 83c1
000000e0: abba dabf 7258 3eb8 a50b 77c1 d780 71c1
000000f0: 84c9 d4c1 2277 11c1 fd3d bdc1 3eaa c8c1
00000100: b451 48c1 8d27 40ba 0992 ecc0 7923 64c1
00000110: 9e08 28c0 d00b 73ba 4313 c4c1 b967 3cc1
00000120: 7c09 06c0 aedd 71c0 0e17 e8c1 23f0 d141
00000130: dc09 1ac1 6e3d 9bc1 4604 42bd 5a68 70bf
00000140: 6074 c8c1 c521 16c1 3c62 e8c1 24f1 25c2
00000150: 154e 2dc2 9f7a cabf de2b 9fc1 494c 98c1
00000160: 2b1b 3cc1 d5a0 95c1 3c81 76bd 2b80 f6bf
00000170: 7175 b5c0 4c29 b5c1 3f8d 2bbf 20b3 c1c1
00000180: 9124 71c0 6380 f440 7f9d 79c1 5264 e6c1
00000190: 9e45 40be 6890 66ba 8d3a 71c0 fd28 89c1
000001a0: 09c0 26c1 42bc ccc1 256b 71c0 ebb4 bec0
000001b0: 79ad f3c0 779e 44c1 e036 7dc1 9466 82c1
000001c0: 6f06 50bf 04a2 cdc0 4d7d aec1 c703 9741
000001d0: 599a 6ac1 8e80 59c1 daaa 2741 7c92 c3c0
000001e0: 52e0 0cc2 87cd 3cc2 c967 8fc1 224d d5c1
000001f0: 4f27 26c1 011d 1bc1 6534 a1c1 23ed ebc0
00000200: 40d3 46c2 9eb3 34ba 5f83 c0bf 17e5 3041
00000210: 6cbb c7c1 356d 03bf ef0c 52c1 32e1 aebf
00000220: 927a 30b8 a0ed 1bc0 10e2 0fc1 6561 51c1
-28.45387 -14.622444 -21.37206 -22.967953 -9.848971 -3.2068253 -20.004501 -9.153617
-51.415905 5.128141 -5.348248 -30.4211 -0.00021220185 -16.109186 -4.8263903 -14.22173
-2.247526 -27.380129 -3.432722 -15.22413 -17.95906 -1.4959149 -43.743984 -2.6067686
-12.219403 -29.938044 -3.3750918 -2.5813735 -13.475171 -23.942049 -3.5006893 -11.190608
-3.5010428 -2.344831 -20.6921 -24.08438 -13.111005 -9.396566 -42.752323 11.049645
-8.812129 -14.337628 -15.286538 -1.5360059 -5.1882086 -7.018556 -2.2863407 -44.69508
-1.8170185 -37.110096 -29.161772 -13.963147 -8.536391 -34.03166 -8.99683 -16.408144
-1.7088217 -4.53819e-05 -15.440343 -15.093955 -26.598396 -9.091585 -23.655268 -25.083126
-12.519947 -0.0007330112 -7.3928266 -14.25866 -2.625526 -0.00092714746 -24.509405 -11.775323
-2.0943289 -3.7791553 -29.011257 26.242254 -9.627407 -19.404995 -0.047367357 -0.9390923
-25.056824 -9.3832445 -29.047966 -41.48549 -43.326252 -1.5818671 -19.89642 -19.037249
-11.756633 -18.703531 -0.06018184 -1.9257864 -5.670586 -22.645164 -0.670124 -24.212463
-3.7678568 7.640672 -15.600951 -28.798985 -0.18776557 -0.0008795322 -3.7691987 -17.145014
-10.421884 -25.591923 -3.7721646 -5.9595847 -7.614926 -12.288688 -15.825897 -16.300087
-0.81259817 -6.4260273 -21.811182 18.876844 -14.662683 -13.593885 10.479212 -6.1116314
-35.219063 -47.20071 -17.925676 -26.662663 -10.384597 -9.694581 -20.150583 -7.3726974
-49.7063 -0.000689322 -1.5040091 11.05593 -24.966515 -0.5133851 -13.128158 -1.3662474
-4.2075822e-05 -2.4363785 -8.992691 -13.086278

conv3.0.weight f4 [4, 140]
00000000: 1046 b0c1 bd8b 49c0 7cf4 6a41 5f91 85c1
00000010: 0f77 c641 e604 05c2 da94 8b41 8b33 16c2
00000020: 223f 44c1 149b 0ec1 9af8 14c1 9945 c541
00000030: 320d a4b7 6fc7 3dc1 9c8a 7e41 c903 1541
00000040: 9e48 bcc1 010e 2ec0 a60c 0542 aaff 3840
00000050: e38b 3ec0 f211 79c0 b2d0 da40 4b3f 1541
00000060: bef1 94c0 2692 8140 496a 9a41 b3ab edc1
00000070: 169c 9ec0 2ae9 62c1 74b5 bfc1 4dd9 5b41
00000080: 7d56 0541 9cf3 a7c1 0a21 3c41 c8a5 823f
00000090: 52ec 8740 f76a 1d40 e32c aec1 c2ec 94c1
000000a0: dfec b7c1 4813 d940 c805 9840 b9f7 46c1
000000b0: 3509 7f40 1ddb 7cbf 5204 95c1 c3e2 a1c1
000000c0: d785 97c1 606d 7f3f c3c3 b5c1 914f fec0
000000d0: 091d e0c1 ec97 d1c1 c1af 4dc1 cccd 2d41
000000e0: cf6a 6d41 59f8 deb7 83b3 c340 996e 88c1
000000f0: 284d 4440 7d27 abc1 22e0 07bf f942 4f41
00000100: 72b7 c5c0 d277 c2b8 0267 00c1 df13 c6c1
00000110: 83d7 b2c1 596e 9cb8 6f08 4ec1 c322 8941
00000120: 8860 493f ad79 16c1 f7af 87c1 12ae 6841
00000130: 01a3 5bc2 4eb1 74c1 a433 47c1 5a5c a8c1
00000140: 6ebd 43bf 8193 f140 fe7d 08c1 daed ccc0
00000150: 74ba ea40 283f b0c1 1e0f 0641 5f10 f340
00000160: 7ca4 9ec0 6cbb b0bf facf edc1 80cc 23c1
00000170: 2d10 5d40 00f7 55c1 388f a240 22d7 7e40
00000180: cad6 e441 0377 b0c1 ed4a 2640 4707 e541
00000190: 8496 5c3f d122 c6b9 39bb 8140 7aa0 6ec1
000001a0: 9003 7c41 f023 a1bf 3e81 0ec2 bbb4 d23f
000001b0: 399f 4440 c722 4240 3493 4540 0227 82c1
000001c0: e2fa 6d40 3996 22c1 d4b4 67c1 d833 fe40
000001d0: 36e8 85c0 7b40 82c0 5ebf 91c1 8bcb 6040
000001e0: 6bd2 ce40 bfa2 8dc1 adf2 8040 e116 0cc0
000001f0: 987c d240 6c85 4640 9104 6a41 bb1c b7c1
00000200: cdb6 0bc1 f7a2 94b8 cf44 5bc1 751a 96c1
00000210: 4fc0 2440 fcfc 42c1 85da d43f 1810 42c1
00000220: b76d a0b7 ea43 62c1 dd44 4940 c4f3 bf40
00000230: 830d b2c0 6040 4e3d a414 f8c1 782e c5c0
00000240: ad7b d1c1 e92e 29c2 41ff 92c0 8508 4bc1
00000250: 34ae 3bbd 6c63 3b3e 06ab 96c0 d0cd 2abc
00000260: ddc6 9ac0 a04c 78c1 955c d4c1 68a7 8e3c
00000270: 1257 73c1 0914 48c1 1c6c 3a3e c475 96c0
00000280: 948d 3a3d a7c3 07c2 b43f fb3d 3a78 93c0
00000290: 8783 93c0 d61a 98c0 7333 9bc0 34b9 47be
000002a0: 9aaa 4dc1 005b 43c1 2d36 9ac0 00b3 26bb
000002b0: 00bd 3dba c3bd 0ec1 eb4d d3c1 00c7 9c3d
000002c0: c011 473d cc32 91c0 b818 f63d f4b2 7ec1
000002d0: 33d3 d2c0 559a 99c0 1068 47bd 73cf 9dc0
000002e0: 681e 263e 73c8 9ac0 1837 a2bd d57d 4bc1
000002f0: 5fc6 d2c1 31aa 99c0 ca69 d8c0 99b1 31be
00000300: 519c 1cc2 4c7d 48c1 49cd d2c1 31e0 d3c1
00000310: f823 91c0 22ac 17be 1456 96c0 b7a8 29c1
00000320: 32d0 b6bd 8ac7 18c1 b727 eac0 b813 f7c1
00000330: 272d 4dc1 fa99 93c0 13dc 90c0 933c 3dbe
00000340: e299 99c0 b0a2 873c 7495 d2c1 834f 29be
00000350: a0e2 38bd 4f78 91c0 d7ee bfc1 64b7 d53d
00000360: f335 eabd 6270 96c0 9a40 afc0 f27e 91c0
00000370: 2caf c0c0 84bf 4cc1 4e47 94c0 e95f d2c1
00000380: d2b9 2a3e 5f05 02c1 c896 d4c1 fec6 98c0
00000390: 87ee b0c0 3205 a7c0 068b 2cc2 e292 a9c0
000003a0: c0dc 9ac0 114d 3abe e032 da3d 6047 e23c
000003b0: e694 423e 3ac8 19c2 4349 94c0 f603 07be
000003c0: 243b 3bbe b28c 47c1 5bb6 93c0 0969 1bc2
000003d0: 7bd2 c9c0 6eba cfc0 f69e 98c0 33f2 91c0
000003e0: 3e8f 8fc0 b4b5 e83d a229 99c0 a69e 123e
000003f0: 690e 9bc0 f2bf 96c0 ab99 93c0 7b0f ccbd
-22.03421 -3.149154 14.684689 -16.695982 24.808134 -33.254784 17.447681 -37.550335
-12.265413 -8.912861 -9.310694 24.658983 -1.9556468e-05 -11.86119 15.90884 9.313424
-23.535458 -2.7196047 33.262352 2.8906045 -2.977288 -3.8917203 6.8379755 9.327952
-4.6545095 4.0490904 19.301897 -29.708838 -4.9565535 -14.181925 -23.9636 13.740552
8.333615 -20.99395 11.758066 1.0206842 4.2475977 2.4596536 -21.771917 -18.615604
-22.99066 6.7836037 4.7507057 -12.435479 3.984937 -0.9877184 -18.62711 -20.235723
-18.940351 0.9977627 -22.720587 -7.9472127 -28.014177 -26.19918 -12.855409 10.862743
14.838576 -2.6580108e-05 6.115663 -17.054003 3.0672092 -21.394281 -0.53076375 12.953851
-6.178643 -9.272959e-05 -8.025148 -24.759703 -22.35523 -7.4592135e-05 -12.877059 17.141973
0.7866292 -9.404706 -16.96092 14.542498 -54.909184 -15.293287 -12.450108 -21.045094
-0.7646092 7.549256 -8.53076 -6.4040346 7.3352604 -22.030838 8.378691 7.5957484
-4.9575787 -1.3807197 -29.726551 -10.237427 3.4541123 -13.372803 5.0799828 3.9818807
28.604877 -22.058111 2.598323 28.628553 0.8616717 -0.00037791443 4.0541043 -14.914179
15.75087 -1.2589092 -35.626213 1.6461405 3.0722182 3.0333726 3.0871096 -16.269047
3.7184377 -10.161675 -14.4816475 7.9438286 -4.184596 -4.070371 -18.218441 3.5124233
6.463186 -17.704466 4.0296235 -2.1888964 6.577709 3.1018934 14.626115 -22.889029
-8.732129 -7.0875445e-05 -13.704299 -18.762918 2.5742376 -12.186764 1.6629187 -12.128929
-1.9124576e-05 -14.141581 3.144828 5.9985065 -5.5641494 0.05035436 -31.010078 -6.1619225
-26.185389 -42.29581 -4.593659 -12.68958 -0.04582043 0.18299645 -4.708377 -0.010425046
-4.8367753 -15.518707 -26.545206 0.01741381 -15.208757 -12.504891 0.18205303 -4.7018757
0.045545176 -33.941067 0.1226801 -4.608426 -4.6098056 -4.753276 -4.8500304 -0.19504243
-12.854151 -12.209717 -4.8191133 -0.0025436282 -0.0007237941 -8.921329 -26.413046 0.07655144
0.048600912 -4.537451 0.120164335 -15.91869 -6.588281 -4.8000894 -0.048683226 -4.9315734
0.16222537 -4.836969 -0.079206645 -12.718221 -26.34686 -4.8020253 -6.7629137 -0.17352904
-39.152653 -12.53059 -26.350237 -26.484468 -4.5356407 -0.14811757 -4.6980076 -10.60369
-0.08926429 -9.548716 -7.317348 -30.884628 -12.8235235 -4.612546 -4.5268645 -0.18480138
-4.8000345 0.016557068 -26.322975 -0.16534238 -0.045138 -4.545936 -23.991621 0.104353696
-0.11436071 -4.7012186 -5.476636 -4.5467463 -6.0213833 -12.796757 -4.633704 -26.296831
0.16672447 -8.126311 -26.573624 -4.774291 -5.529117 -5.219384 -43.135765 -5.29918
-4.839447 -0.18193461 0.10654235 0.027621925 0.19002113 -38.445534 -4.633943 -0.13185105
-0.18284279 -12.471849 -4.61601 -38.852573 -6.3069434 -6.4915075 -4.7694044 -4.5608153
-4.4862356 0.11362782 -4.786332 0.14318332 -4.845509 -4.710931 -4.6125083 -0.0996389

conv3.0.bias f4 [4]
00000000: daaa 7e42 4aa4 9ac1 cbd8 b8c1 b979 6ec2
63.666847 -19.33022 -23.105856 -59.61887
